…
momentum: 0.9
weight_decay: 0.0005
stepsize: 50000
snapshot: 0
snapshot_prefix: "zf_faster_rcnn"
average_loss: 100
iter_size: 2
I0405 11:28:37.170433  7827 solver.cpp:81] Creating training net from train_net file: train.prototxt
I0405 11:28:37.170797  7827 net.cpp:49] Initializing net from parameters: 
name: "ZF"
state {
  phase: TRAIN
}
layer {
  name: "input-data"
  type: "Python"
  top: "data"
  top: "im_info"
  top: "gt_boxes"
  python_param {
    module: "roi_data_layer.layer"
    layer: "RoIDataLayer"
    param_str: "\'num_classes\': 2"
  }
}
layer {
  name: "conv1"
  type: "Convolution"
  bottom: "data"
  top: "conv1"
  param {
    lr_mult: 1
  }
  param {
    lr_mult: 2
  }
  convolution_param {
    num_output: 96
    pad: 3
    kernel_size: 7
    stride: 2
  }
}
layer {
  name: "relu1"
  type: "ReLU"
  bottom: "conv1"
  top: "conv1"
}
layer {
  name: "norm1"
  type: "LRN"
  bottom: "conv1"
  top: "norm1"
  lrn_param {
    local_size: 3
    alpha: 5e-05
    beta: 0.75
    norm_region: WITHIN_CHANNEL
    engine: CAFFE
  }
}
layer {
  name: "pool1"
  type: "Pooling"
  bottom: "norm1"
  top: "pool1"
  pooling_param {
    pool: MAX
    kernel_size: 3
    stride: 2
    pad: 1
  }
}
layer {
  name: "conv2"
  type: "Convolution"
  bottom: "pool1"
  top: "conv2"
  param {
    lr_mult: 1
  }
  param {
    lr_mult: 2
  }
  convolution_param {
    num_output: 256
    pad: 2
    kernel_size: 5
    stride: 2
  }
}
layer {
  name: "relu2"
  type: "ReLU"
  bottom: "conv2"
  top: "conv2"
}
layer {
  name: "norm2"
  type: "LRN"
  bottom: "conv2"
  top: "norm2"
  lrn_param {
    local_size: 3
    alpha: 5e-05
    beta: 0.75
    norm_region: WITHIN_CHANNEL
    engine: CAFFE
  }
}
layer {
  name: "pool2"
  type: "Pooling"
  bottom: "norm2"
  top: "pool2"
  pooling_param {
    pool: MAX
    kernel_size: 3
    stride: 2
    pad: 1
  }
}
layer {
  name: "conv3"
  type: "Convolution"
  bottom: "pool2"
  top: "conv3"
  param {
    lr_mult: 1
  }
  param {
    lr_mult: 2
  }
  convolution_param {
    num_output: 384
    pad: 1
    kernel_size: 3
    stride: 1
  }
}
layer {
  name: "relu3"
  type: "ReLU"
  bottom: "conv3"
  top: "conv3"
}
layer {
  name: "conv4"
  type: "Convolution"
  bottom: "conv3"
  top: "conv4"
  param {
    lr_mult: 1
  }
  param {
    lr_mult: 2
  }
  convolution_param {
    num_output: 384
    pad: 1
    kernel_size: 3
    stride: 1
  }
}
layer {
  name: "relu4"
  type: "ReLU"
  bottom: "conv4"
  top: "conv4"
}
layer {
  name: "conv5"
  type: "Convolution"
  bottom: "conv4"
  top: "conv5"
  param {
    lr_mult: 1
  }
  param {
    lr_mult: 2
  }
  convolution_param {
    num_output: 256
    pad: 1
    kernel_size: 3
    stride: 1
  }
}
layer {
  name: "relu5"
  type: "ReLU"
  bottom: "conv5"
  top: "conv5"
}
layer {
  name: "rpn_conv/3x3"
  type: "Convolution"
  bottom: "conv5"
  top: "rpn/output"
  param {
    lr_mult: 1
  }
  param {
    lr_mult: 2
  }
  convolution_param {
    num_output: 256
    pad: 1
    kernel_size: 3
    stride: 1
    weight_filler {
      type: "gaussian"
      std: 0.01
    }
    bias_filler {
      type: "constant"
      value: 0
    }
  }
}
layer {
  name: "rpn_relu/3x3"
  type: "ReLU"
  bottom: "rpn/output"
  top: "rpn/output"
}
layer {
  name: "rpn_cls_score"
  type: "Convolution"
  bottom: "rpn/output"
  top: "rpn_cls_score"
  param {
    lr_mult: 1
  }
  param {
    lr_mult: 2
  }
  convolution_param {
    num_output: 18
    pad: 0
    kernel_size: 1
    stride: 1
    weight_filler {
      type: "gaussian"
      std: 0.01
    }
    bias_filler {
      type: "constant"
      value: 0
    }
  }
}
layer {
  name: "rpn_bbox_pred"
  type: "Convolution"
  bottom: "rpn/output"
  top: "rpn_bbox_pred"
  param {
    lr_mult: 1
  }
  param {
    lr_mult: 2
  }
  convolution_param {
    num_output: 36
    pad: 0
    kernel_size: 1
    stride: 1
    weight_filler {
      type: "gaussian"
      std: 0.01
    }
    bias_filler {
      type: "constant"
      value: 0
    }
  }
}
layer {
  name: "rpn_cls_score_reshape"
  type: "Reshape"
  bottom: "rpn_cls_score"
  top: "rpn_cls_score_reshape"
  reshape_param {
    shape {
      dim: 0
      dim: 2
      dim: -1
      dim: 0
    }
  }
}
layer {
  name: "rpn-data"
  type: "Python"
  bottom: "rpn_cls_score"
  bottom: "gt_boxes"
  bottom: "im_info"
  bottom: "data"
  top: "rpn_labels"
  top: "rpn_bbox_targets"
  top: "rpn_bbox_inside_weights"
  top: "rpn_bbox_outside_weights"
  python_param {
    module: "rpn.anchor_target_layer"
    layer: "AnchorTargetLayer"
    param_str: "\'feat_stride\': 16"
  }
}
layer {
  name: "rpn_loss_cls"
  type: "SoftmaxWithLoss"
  bottom: "rpn_cls_score_reshape"
  bottom: "rpn_labels"
  top: "rpn_cls_loss"
  loss_weight: 1
  propagate_down: true
  propagate_down: false
  loss_param {
    ignore_label: -1
    normalize: true
  }
}
layer {
  name: "rpn_loss_bbox"
  type: "SmoothL1Loss"
  bottom: "rpn_bbox_pred"
  bottom: "rpn_bbox_targets"
  bottom: "rpn_bbox_inside_weights"
  bottom: "rpn_bbox_outside_weights"
  top: "rpn_loss_bbox"
  loss_weight: 1
  smooth_l1_loss_param {
    sigma: 3
  }
}
layer {
  name: "rpn_cls_prob"
  type: "Softmax"
  bottom: "rpn_cls_score_reshape"
  top: "rpn_cls_prob"
}
layer {
  name: "rpn_cls_prob_reshape"
  type: "Reshape"
  bottom: "rpn_cls_prob"
  top: "rpn_cls_prob_reshape"
  reshape_param {
    shape {
      dim: 0
      dim: 18
      dim: -1
      dim: 0
    }
  }
}
layer {
  name: "proposal"
  type: "Python"
  bottom: "rpn_cls_prob_reshape"
  bottom: "rpn_bbox_pred"
  bottom: "im_info"
  top: "rpn_rois"
  python_param {
    module: "rpn.proposal_layer"
    layer: "ProposalLayer"
    param_str: "\'feat_stride\': 16"
  }
}
layer {
  name: "roi-data"
  type: "Python"
  bottom: "rpn_rois"
  bottom: "gt_boxes"
  top: "rois"
  top: "labels"
  top: "bbox_targets"
  top: "bbox_inside_weights"
  top: "bbox_outside_weights"
  python_param {
    module: "rpn.proposal_target_layer"
    layer: "ProposalTargetLayer"
    param_str: "\'num_classes\': 2"
  }
}
layer {
  name: "roi_pool_conv5"
  type: "ROIPooling"
  bottom: "conv5"
  bottom: "rois"
  top: "roi_pool_conv5"
  roi_pooling_param {
    pooled_h: 6
    pooled_w: 6
    spatial_scale: 0.0625
  }
}
layer {
  name: "fc6"
  type: "InnerProduct"
  bottom: "roi_pool_conv5"
  top: "fc6"
  param {
    lr_mult: 1
  }
  param {
    lr_mult: 2
  }
  inner_product_param {
    num_output: 4096
  }
}
layer {
  name: "relu6"
  type: "ReLU"
  bottom: "fc6"
  top: "fc6"
}
layer {
  name: "drop6"
  type: "Dropout"
  bottom: "fc6"
  top: "fc6"
  dropout_param {
    dropout_ratio: 0.5
    scale_train: false
  }
}
layer {
  name: "fc7"
  type: "InnerProduct"
  bottom: "fc6"
  top: "fc7"
  param {
    lr_mult: 1
  }
  param {
    lr_mult: 2
  }
  inner_product_param {
    num_output: 4096
  }
}
layer {
  name: "relu7"
  type: "ReLU"
  bottom: "fc7"
  top: "fc7"
}
layer {
  name: "drop7"
  type: "Dropout"
  bottom: "fc7"
  top: "fc7"
  dropout_param {
    dropout_ratio: 0.5
    scale_train: false
  }
}
layer {
  name: "cls_score"
  type: "InnerProduct"
  bottom: "fc7"
  top: "cls_score"
  param {
    lr_mult: 1
  }
  param {
    lr_mult: 2
  }
  inner_product_param {
    num_output: 2
    weight_filler {
      type: "gaussian"
      std: 0.01
    }
    bias_filler {
      type: "constant"
      value: 0
    }
  }
}
layer {
  name: "bbox_pred"
  type: "InnerProduct"
  bottom: "fc7"
  top: "bbox_pred"
  param {
    lr_mult: 1
  }
  param {
    lr_mult: 2
  }
  inner_product_param {
    num_output: 8
    weight_filler {
      type: "gaussian"
      std: 0.001
    }
    bias_filler {
      type: "constant"
      value: 0
    }
  }
}
layer {
  name: "loss_cls"
  type: "SoftmaxWithLoss"
  bottom: "cls_score"
  bottom: "labels"
  top: "cls_loss"
  loss_weight: 1
  propagate_down: true
  propagate_down: false
  loss_param {
    ignore_label: -1
    normalize: true
  }
}
layer {
  name: "loss_bbox"
  type: "SmoothL1Loss"
  bottom: "bbox_pred"
  bottom: "bbox_targets"
  bottom: "bbox_inside_weights"
  bottom: "bbox_outside_weights"
  top: "bbox_loss"
  loss_weight: 1
}
I0405 11:28:37.171156  7827 layer_factory.hpp:77] Creating layer input-data
I0405 11:28:37.225368  7827 net.cpp:106] Creating Layer input-data
I0405 11:28:37.225394  7827 net.cpp:411] input-data -> data
I0405 11:28:37.225404  7827 net.cpp:411] input-data -> im_info
I0405 11:28:37.225411  7827 net.cpp:411] input-data -> gt_boxes
RoiDataLayer: name_to_top: {'gt_boxes': 2, 'data': 0, 'im_info': 1}
I0405 11:28:37.233979  7827 net.cpp:150] Setting up input-data
I0405 11:28:37.234006  7827 net.cpp:157] Top shape: 1 3 600 1000 (1800000)
I0405 11:28:37.234017  7827 net.cpp:157] Top shape: 1 3 (3)
I0405 11:28:37.234022  7827 net.cpp:157] Top shape: 1 4 (4)
I0405 11:28:37.234026  7827 net.cpp:165] Memory required for data: 7200028
I0405 11:28:37.234032  7827 layer_factory.hpp:77] Creating layer data_input-data_0_split
I0405 11:28:37.234047  7827 net.cpp:106] Creating Layer data_input-data_0_split
I0405 11:28:37.234053  7827 net.cpp:454] data_input-data_0_split <- data
I0405 11:28:37.234061  7827 net.cpp:411] data_input-data_0_split -> data_input-data_0_split_0
I0405 11:28:37.234071  7827 net.cpp:411] data_input-data_0_split -> data_input-data_0_split_1
I0405 11:28:37.234108  7827 net.cpp:150] Setting up data_input-data_0_split
I0405 11:28:37.234115  7827 net.cpp:157] Top shape: 1 3 600 1000 (1800000)
I0405 11:28:37.234120  7827 net.cpp:157] Top shape: 1 3 600 1000 (1800000)
I0405 11:28:37.234125  7827 net.cpp:165] Memory required for data: 21600028
I0405 11:28:37.234129  7827 layer_factory.hpp:77] Creating layer im_info_input-data_1_split
I0405 11:28:37.234134  7827 net.cpp:106] Creating Layer im_info_input-data_1_split
I0405 11:28:37.234138  7827 net.cpp:454] im_info_input-data_1_split <- im_info
I0405 11:28:37.234144  7827 net.cpp:411] im_info_input-data_1_split -> im_info_input-data_1_split_0
I0405 11:28:37.234150  7827 net.cpp:411] im_info_input-data_1_split -> im_info_input-data_1_split_1
I0405 11:28:37.234179  7827 net.cpp:150] Setting up im_info_input-data_1_split
I0405 11:28:37.234184  7827 net.cpp:157] Top shape: 1 3 (3)
I0405 11:28:37.234189  7827 net.cpp:157] Top shape: 1 3 (3)
I0405 11:28:37.234194  7827 net.cpp:165] Memory required for data: 21600052
I0405 11:28:37.234196  7827 layer_factory.hpp:77] Creating layer gt_boxes_input-data_2_split
I0405 11:28:37.234202  7827 net.cpp:106] Creating Layer gt_boxes_input-data_2_split
I0405 11:28:37.234206  7827 net.cpp:454] gt_boxes_input-data_2_split <- gt_boxes
I0405 11:28:37.234212  7827 net.cpp:411] gt_boxes_input-data_2_split -> gt_boxes_input-data_2_split_0
I0405 11:28:37.234218  7827 net.cpp:411] gt_boxes_input-data_2_split -> gt_boxes_input-data_2_split_1
I0405 11:28:37.234246  7827 net.cpp:150] Setting up gt_boxes_input-data_2_split
I0405 11:28:37.234252  7827 net.cpp:157] Top shape: 1 4 (4)
I0405 11:28:37.234256  7827 net.cpp:157] Top shape: 1 4 (4)
I0405 11:28:37.234261  7827 net.cpp:165] Memory required for data: 21600084
I0405 11:28:37.234264  7827 layer_factory.hpp:77] Creating layer conv1
I0405 11:28:37.234274  7827 net.cpp:106] Creating Layer conv1
I0405 11:28:37.234278  7827 net.cpp:454] conv1 <- data_input-data_0_split_0
I0405 11:28:37.234284  7827 net.cpp:411] conv1 -> conv1
I0405 11:28:37.234596  7827 net.cpp:150] Setting up conv1
I0405 11:28:37.234604  7827 net.cpp:157] Top shape: 1 96 300 500 (14400000)
I0405 11:28:37.234611  7827 net.cpp:165] Memory required for data: 79200084
I0405 11:28:37.234620  7827 layer_factory.hpp:77] Creating layer relu1
I0405 11:28:37.234627  7827 net.cpp:106] Creating Layer relu1
I0405 11:28:37.234632  7827 net.cpp:454] relu1 <- conv1
I0405 11:28:37.234637  7827 net.cpp:397] relu1 -> conv1 (in-place)
I0405 11:28:37.234642  7827 net.cpp:150] Setting up relu1
I0405 11:28:37.234647  7827 net.cpp:157] Top shape: 1 96 300 500 (14400000)
I0405 11:28:37.234652  7827 net.cpp:165] Memory required for data: 136800084
I0405 11:28:37.234654  7827 layer_factory.hpp:77] Creating layer norm1
I0405 11:28:37.234661  7827 net.cpp:106] Creating Layer norm1
I0405 11:28:37.234664  7827 net.cpp:454] norm1 <- conv1
I0405 11:28:37.234669  7827 net.cpp:411] norm1 -> norm1
I0405 11:28:37.234763  7827 net.cpp:150] Setting up norm1
I0405 11:28:37.234771  7827 net.cpp:157] Top shape: 1 96 300 500 (14400000)
I0405 11:28:37.234777  7827 net.cpp:165] Memory required for data: 194400084
I0405 11:28:37.234781  7827 layer_factory.hpp:77] Creating layer pool1
I0405 11:28:37.234786  7827 net.cpp:106] Creating Layer pool1
I0405 11:28:37.234791  7827 net.cpp:454] pool1 <- norm1
I0405 11:28:37.234796  7827 net.cpp:411] pool1 -> pool1
I0405 11:28:37.234823  7827 net.cpp:150] Setting up pool1
I0405 11:28:37.234829  7827 net.cpp:157] Top shape: 1 96 151 251 (3638496)
I0405 11:28:37.234835  7827 net.cpp:165] Memory required for data: 208954068
I0405 11:28:37.234838  7827 layer_factory.hpp:77] Creating layer conv2
I0405 11:28:37.234846  7827 net.cpp:106] Creating Layer conv2
I0405 11:28:37.234850  7827 net.cpp:454] conv2 <- pool1
I0405 11:28:37.234855  7827 net.cpp:411] conv2 -> conv2
I0405 11:28:37.236479  7827 net.cpp:150] Setting up conv2
I0405 11:28:37.236493  7827 net.cpp:157] Top shape: 1 256 76 126 (2451456)
I0405 11:28:37.236500  7827 net.cpp:165] Memory required for data: 218759892
I0405 11:28:37.236508  7827 layer_factory.hpp:77] Creating layer relu2
I0405 11:28:37.236515  7827 net.cpp:106] Creating Layer relu2
I0405 11:28:37.236521  7827 net.cpp:454] relu2 <- conv2
I0405 11:28:37.236526  7827 net.cpp:397] relu2 -> conv2 (in-place)
I0405 11:28:37.236532  7827 net.cpp:150] Setting up relu2
I0405 11:28:37.236536  7827 net.cpp:157] Top shape: 1 256 76 126 (2451456)
I0405 11:28:37.236541  7827 net.cpp:165] Memory required for data: 228565716
I0405 11:28:37.236546  7827 layer_factory.hpp:77] Creating layer norm2
I0405 11:28:37.236551  7827 net.cpp:106] Creating Layer norm2
I0405 11:28:37.236554  7827 net.cpp:454] norm2 <- conv2
I0405 11:28:37.236559  7827 net.cpp:411] norm2 -> norm2
I0405 11:28:37.236642  7827 net.cpp:150] Setting up norm2
I0405 11:28:37.236650  7827 net.cpp:157] Top shape: 1 256 76 126 (2451456)
I0405 11:28:37.236655  7827 net.cpp:165] Memory required for data: 238371540
I0405 11:28:37.236660  7827 layer_factory.hpp:77] Creating layer pool2
I0405 11:28:37.236665  7827 net.cpp:106] Creating Layer pool2
I0405 11:28:37.236670  7827 net.cpp:454] pool2 <- norm2
I0405 11:28:37.236675  7827 net.cpp:411] pool2 -> pool2
I0405 11:28:37.236703  7827 net.cpp:150] Setting up pool2
I0405 11:28:37.236711  7827 net.cpp:157] Top shape: 1 256 39 64 (638976)
I0405 11:28:37.236716  7827 net.cpp:165] Memory required for data: 240927444
I0405 11:28:37.236719  7827 layer_factory.hpp:77] Creating layer conv3
I0405 11:28:37.236726  7827 net.cpp:106] Creating Layer conv3
I0405 11:28:37.236730  7827 net.cpp:454] conv3 <- pool2
I0405 11:28:37.236737  7827 net.cpp:411] conv3 -> conv3
I0405 11:28:37.239013  7827 net.cpp:150] Setting up conv3
I0405 11:28:37.239034  7827 net.cpp:157] Top shape: 1 384 39 64 (958464)
I0405 11:28:37.239042  7827 net.cpp:165] Memory required for data: 244761300
I0405 11:28:37.239053  7827 layer_factory.hpp:77] Creating layer relu3
I0405 11:28:37.239061  7827 net.cpp:106] Creating Layer relu3
I0405 11:28:37.239068  7827 net.cpp:454] relu3 <- conv3
I0405 11:28:37.239073  7827 net.cpp:397] relu3 -> conv3 (in-place)
I0405 11:28:37.239081  7827 net.cpp:150] Setting up relu3
I0405 11:28:37.239085  7827 net.cpp:157] Top shape: 1 384 39 64 (958464)
I0405 11:28:37.239091  7827 net.cpp:165] Memory required for data: 248595156
I0405 11:28:37.239096  7827 layer_factory.hpp:77] Creating layer conv4
I0405 11:28:37.239110  7827 net.cpp:106] Creating Layer conv4
I0405 11:28:37.239115  7827 net.cpp:454] conv4 <- conv3
I0405 11:28:37.239122  7827 net.cpp:411] conv4 -> conv4
I0405 11:28:37.242561  7827 net.cpp:150] Setting up conv4
I0405 11:28:37.242599  7827 net.cpp:157] Top shape: 1 384 39 64 (958464)
I0405 11:28:37.242617  7827 net.cpp:165] Memory required for data: 252429012
I0405 11:28:37.242635  7827 layer_factory.hpp:77] Creating layer relu4
I0405 11:28:37.242650  7827 net.cpp:106] Creating Layer relu4
I0405 11:28:37.242661  7827 net.cpp:454] relu4 <- conv4
I0405 11:28:37.242674  7827 net.cpp:397] relu4 -> conv4 (in-place)
I0405 11:28:37.242694  7827 net.cpp:150] Setting up relu4
I0405 11:28:37.242704  7827 net.cpp:157] Top shape: 1 384 39 64 (958464)
I0405 11:28:37.242714  7827 net.cpp:165] Memory required for data: 256262868
I0405 11:28:37.242722  7827 layer_factory.hpp:77] Creating layer conv5
I0405 11:28:37.242738  7827 net.cpp:106] Creating Layer conv5
I0405 11:28:37.242748  7827 net.cpp:454] conv5 <- conv4
I0405 11:28:37.242758  7827 net.cpp:411] conv5 -> conv5
I0405 11:28:37.245062  7827 net.cpp:150] Setting up conv5
I0405 11:28:37.245085  7827 net.cpp:157] Top shape: 1 256 39 64 (638976)
I0405 11:28:37.245095  7827 net.cpp:165] Memory required for data: 258818772
I0405 11:28:37.245110  7827 layer_factory.hpp:77] Creating layer relu5
I0405 11:28:37.245122  7827 net.cpp:106] Creating Layer relu5
I0405 11:28:37.245131  7827 net.cpp:454] relu5 <- conv5
I0405 11:28:37.245139  7827 net.cpp:397] relu5 -> conv5 (in-place)
I0405 11:28:37.245151  7827 net.cpp:150] Setting up relu5
I0405 11:28:37.245157  7827 net.cpp:157] Top shape: 1 256 39 64 (638976)
I0405 11:28:37.245167  7827 net.cpp:165] Memory required for data: 261374676
I0405 11:28:37.245173  7827 layer_factory.hpp:77] Creating layer conv5_relu5_0_split
I0405 11:28:37.245182  7827 net.cpp:106] Creating Layer conv5_relu5_0_split
I0405 11:28:37.245189  7827 net.cpp:454] conv5_relu5_0_split <- conv5
I0405 11:28:37.245199  7827 net.cpp:411] conv5_relu5_0_split -> conv5_relu5_0_split_0
I0405 11:28:37.245213  7827 net.cpp:411] conv5_relu5_0_split -> conv5_relu5_0_split_1
I0405 11:28:37.245262  7827 net.cpp:150] Setting up conv5_relu5_0_split
I0405 11:28:37.245271  7827 net.cpp:157] Top shape: 1 256 39 64 (638976)
I0405 11:28:37.245280  7827 net.cpp:157] Top shape: 1 256 39 64 (638976)
I0405 11:28:37.245288  7827 net.cpp:165] Memory required for data: 266486484
I0405 11:28:37.245296  7827 layer_factory.hpp:77] Creating layer rpn_conv/3x3
I0405 11:28:37.245311  7827 net.cpp:106] Creating Layer rpn_conv/3x3
I0405 11:28:37.245321  7827 net.cpp:454] rpn_conv/3x3 <- conv5_relu5_0_split_0
I0405 11:28:37.245333  7827 net.cpp:411] rpn_conv/3x3 -> rpn/output
I0405 11:28:37.252887  7827 net.cpp:150] Setting up rpn_conv/3x3
I0405 11:28:37.252903  7827 net.cpp:157] Top shape: 1 256 39 64 (638976)
I0405 11:28:37.252913  7827 net.cpp:165] Memory required for data: 269042388
I0405 11:28:37.252924  7827 layer_factory.hpp:77] Creating layer rpn_relu/3x3
I0405 11:28:37.252935  7827 net.cpp:106] Creating Layer rpn_relu/3x3
I0405 11:28:37.252944  7827 net.cpp:454] rpn_relu/3x3 <- rpn/output
I0405 11:28:37.252954  7827 net.cpp:397] rpn_relu/3x3 -> rpn/output (in-place)
I0405 11:28:37.252964  7827 net.cpp:150] Setting up rpn_relu/3x3
I0405 11:28:37.252970  7827 net.cpp:157] Top shape: 1 256 39 64 (638976)
I0405 11:28:37.252979  7827 net.cpp:165] Memory required for data: 271598292
I0405 11:28:37.252986  7827 layer_factory.hpp:77] Creating layer rpn/output_rpn_relu/3x3_0_split
I0405 11:28:37.252996  7827 net.cpp:106] Creating Layer rpn/output_rpn_relu/3x3_0_split
I0405 11:28:37.253002  7827 net.cpp:454] rpn/output_rpn_relu/3x3_0_split <- rpn/output
I0405 11:28:37.253011  7827 net.cpp:411] rpn/output_rpn_relu/3x3_0_split -> rpn/output_rpn_relu/3x3_0_split_0
I0405 11:28:37.253023  7827 net.cpp:411] rpn/output_rpn_relu/3x3_0_split -> rpn/output_rpn_relu/3x3_0_split_1
I0405 11:28:37.253067  7827 net.cpp:150] Setting up rpn/output_rpn_relu/3x3_0_split
I0405 11:28:37.253075  7827 net.cpp:157] Top shape: 1 256 39 64 (638976)
I0405 11:28:37.253084  7827 net.cpp:157] Top shape: 1 256 39 64 (638976)
I0405 11:28:37.253093  7827 net.cpp:165] Memory required for data: 276710100
I0405 11:28:37.253099  7827 layer_factory.hpp:77] Creating layer rpn_cls_score
I0405 11:28:37.253113  7827 net.cpp:106] Creating Layer rpn_cls_score
I0405 11:28:37.253123  7827 net.cpp:454] rpn_cls_score <- rpn/output_rpn_relu/3x3_0_split_0
I0405 11:28:37.253134  7827 net.cpp:411] rpn_cls_score -> rpn_cls_score
I0405 11:28:37.253389  7827 net.cpp:150] Setting up rpn_cls_score
I0405 11:28:37.253399  7827 net.cpp:157] Top shape: 1 18 39 64 (44928)
I0405 11:28:37.253408  7827 net.cpp:165] Memory required for data: 276889812
I0405 11:28:37.253418  7827 layer_factory.hpp:77] Creating layer rpn_cls_score_rpn_cls_score_0_split
I0405 11:28:37.253428  7827 net.cpp:106] Creating Layer rpn_cls_score_rpn_cls_score_0_split
I0405 11:28:37.253435  7827 net.cpp:454] rpn_cls_score_rpn_cls_score_0_split <- rpn_cls_score
I0405 11:28:37.253444  7827 net.cpp:411] rpn_cls_score_rpn_cls_score_0_split -> rpn_cls_score_rpn_cls_score_0_split_0
I0405 11:28:37.253456  7827 net.cpp:411] rpn_cls_score_rpn_cls_score_0_split -> rpn_cls_score_rpn_cls_score_0_split_1
I0405 11:28:37.253500  7827 net.cpp:150] Setting up rpn_cls_score_rpn_cls_score_0_split
I0405 11:28:37.253509  7827 net.cpp:157] Top shape: 1 18 39 64 (44928)
I0405 11:28:37.253517  7827 net.cpp:157] Top shape: 1 18 39 64 (44928)
I0405 11:28:37.253525  7827 net.cpp:165] Memory required for data: 277249236
I0405 11:28:37.253532  7827 layer_factory.hpp:77] Creating layer rpn_bbox_pred
I0405 11:28:37.253545  7827 net.cpp:106] Creating Layer rpn_bbox_pred
I0405 11:28:37.253552  7827 net.cpp:454] rpn_bbox_pred <- rpn/output_rpn_relu/3x3_0_split_1
I0405 11:28:37.253563  7827 net.cpp:411] rpn_bbox_pred -> rpn_bbox_pred
I0405 11:28:37.253863  7827 net.cpp:150] Setting up rpn_bbox_pred
I0405 11:28:37.253875  7827 net.cpp:157] Top shape: 1 36 39 64 (89856)
I0405 11:28:37.253883  7827 net.cpp:165] Memory required for data: 277608660
I0405 11:28:37.253893  7827 layer_factory.hpp:77] Creating layer rpn_bbox_pred_rpn_bbox_pred_0_split
I0405 11:28:37.253902  7827 net.cpp:106] Creating Layer rpn_bbox_pred_rpn_bbox_pred_0_split
I0405 11:28:37.253917  7827 net.cpp:454] rpn_bbox_pred_rpn_bbox_pred_0_split <- rpn_bbox_pred
I0405 11:28:37.253927  7827 net.cpp:411] rpn_bbox_pred_rpn_bbox_pred_0_split -> rpn_bbox_pred_rpn_bbox_pred_0_split_0
I0405 11:28:37.253939  7827 net.cpp:411] rpn_bbox_pred_rpn_bbox_pred_0_split -> rpn_bbox_pred_rpn_bbox_pred_0_split_1
I0405 11:28:37.253980  7827 net.cpp:150] Setting up rpn_bbox_pred_rpn_bbox_pred_0_split
I0405 11:28:37.253990  7827 net.cpp:157] Top shape: 1 36 39 64 (89856)
I0405 11:28:37.253999  7827 net.cpp:157] Top shape: 1 36 39 64 (89856)
I0405 11:28:37.254007  7827 net.cpp:165] Memory required for data: 278327508
I0405 11:28:37.254014  7827 layer_factory.hpp:77] Creating layer rpn_cls_score_reshape
I0405 11:28:37.254031  7827 net.cpp:106] Creating Layer rpn_cls_score_reshape
I0405 11:28:37.254040  7827 net.cpp:454] rpn_cls_score_reshape <- rpn_cls_score_rpn_cls_score_0_split_0
I0405 11:28:37.254051  7827 net.cpp:411] rpn_cls_score_reshape -> rpn_cls_score_reshape
I0405 11:28:37.254084  7827 net.cpp:150] Setting up rpn_cls_score_reshape
I0405 11:28:37.254092  7827 net.cpp:157] Top shape: 1 2 351 64 (44928)
I0405 11:28:37.254101  7827 net.cpp:165] Memory required for data: 278507220
I0405 11:28:37.254108  7827 layer_factory.hpp:77] Creating layer rpn_cls_score_reshape_rpn_cls_score_reshape_0_split
I0405 11:28:37.254117  7827 net.cpp:106] Creating Layer rpn_cls_score_reshape_rpn_cls_score_reshape_0_split
I0405 11:28:37.254124  7827 net.cpp:454] rpn_cls_score_reshape_rpn_cls_score_reshape_0_split <- rpn_cls_score_reshape
I0405 11:28:37.254133  7827 net.cpp:411] rpn_cls_score_reshape_rpn_cls_score_reshape_0_split -> rpn_cls_score_reshape_rpn_cls_score_reshape_0_split_0
I0405 11:28:37.254145  7827 net.cpp:411] rpn_cls_score_reshape_rpn_cls_score_reshape_0_split -> rpn_cls_score_reshape_rpn_cls_score_reshape_0_split_1
I0405 11:28:37.254182  7827 net.cpp:150] Setting up rpn_cls_score_reshape_rpn_cls_score_reshape_0_split
I0405 11:28:37.254191  7827 net.cpp:157] Top shape: 1 2 351 64 (44928)
I0405 11:28:37.254200  7827 net.cpp:157] Top shape: 1 2 351 64 (44928)
I0405 11:28:37.254209  7827 net.cpp:165] Memory required for data: 278866644
I0405 11:28:37.254215  7827 layer_factory.hpp:77] Creating layer rpn-data
I0405 11:28:37.254719  7827 net.cpp:106] Creating Layer rpn-data
I0405 11:28:37.254736  7827 net.cpp:454] rpn-data <- rpn_cls_score_rpn_cls_score_0_split_1
I0405 11:28:37.254751  7827 net.cpp:454] rpn-data <- gt_boxes_input-data_2_split_0
I0405 11:28:37.254761  7827 net.cpp:454] rpn-data <- im_info_input-data_1_split_0
I0405 11:28:37.254770  7827 net.cpp:454] rpn-data <- data_input-data_0_split_1
I0405 11:28:37.254782  7827 net.cpp:411] rpn-data -> rpn_labels
I0405 11:28:37.254799  7827 net.cpp:411] rpn-data -> rpn_bbox_targets
I0405 11:28:37.254819  7827 net.cpp:411] rpn-data -> rpn_bbox_inside_weights
I0405 11:28:37.254834  7827 net.cpp:411] rpn-data -> rpn_bbox_outside_weights
I0405 11:28:37.255622  7827 net.cpp:150] Setting up rpn-data
I0405 11:28:37.255643  7827 net.cpp:157] Top shape: 1 1 351 64 (22464)
I0405 11:28:37.255658  7827 net.cpp:157] Top shape: 1 36 39 64 (89856)
I0405 11:28:37.255667  7827 net.cpp:157] Top shape: 1 36 39 64 (89856)
I0405 11:28:37.255676  7827 net.cpp:157] Top shape: 1 36 39 64 (89856)
I0405 11:28:37.255684  7827 net.cpp:165] Memory required for data: 280034772
I0405 11:28:37.255692  7827 layer_factory.hpp:77] Creating layer rpn_loss_cls
I0405 11:28:37.255704  7827 net.cpp:106] Creating Layer rpn_loss_cls
I0405 11:28:37.255712  7827 net.cpp:454] rpn_loss_cls <- rpn_cls_score_reshape_rpn_cls_score_reshape_0_split_0
I0405 11:28:37.255722  7827 net.cpp:454] rpn_loss_cls <- rpn_labels
…
I0405 11:28:37.256855  7827 net.cpp:157] Top shape: (1)
I0405 11:28:37.256861  7827 net.cpp:160]     with loss weight 1
I0405 11:28:37.256870  7827 net.cpp:165] Memory required for data: 280034780
I0405 11:28:37.256877  7827 layer_factory.hpp:77] Creating layer rpn_cls_prob
I0405 11:28:37.256886  7827 net.cpp:106] Creating Layer rpn_cls_prob
I0405 11:28:37.256893  7827 net.cpp:454] rpn_cls_prob <- rpn_cls_score_reshape_rpn_cls_score_reshape_0_split_1
I0405 11:28:37.256903  7827 net.cpp:411] rpn_cls_prob -> rpn_cls_prob
I0405 11:28:37.256971  7827 net.cpp:150] Setting up rpn_cls_prob
I0405 11:28:37.256980  7827 net.cpp:157] Top shape: 1 2 351 64 (44928)
I0405 11:28:37.256989  7827 net.cpp:165] Memory required for data: 280214492
I0405 11:28:37.256995  7827 layer_factory.hpp:77] Creating layer rpn_cls_prob_reshape
I0405 11:28:37.257010  7827 net.cpp:106] Creating Layer rpn_cls_prob_reshape
I0405 11:28:37.257019  7827 net.cpp:454] rpn_cls_prob_reshape <- rpn_cls_prob
I0405 11:28:37.257030  7827 net.cpp:411] rpn_cls_prob_reshape -> rpn_cls_prob_reshape
I0405 11:28:37.257063  7827 net.cpp:150] Setting up rpn_cls_prob_reshape
I0405 11:28:37.257072  7827 net.cpp:157] Top shape: 1 18 39 64 (44928)
I0405 11:28:37.257081  7827 net.cpp:165] Memory required for data: 280394204
I0405 11:28:37.257087  7827 layer_factory.hpp:77] Creating layer proposal
I0405 11:28:37.257866  7827 net.cpp:106] Creating Layer proposal
I0405 11:28:37.257882  7827 net.cpp:454] proposal <- rpn_cls_prob_reshape
I0405 11:28:37.257891  7827 net.cpp:454] proposal <- rpn_bbox_pred_rpn_bbox_pred_0_split_1
I0405 11:28:37.257899  7827 net.cpp:454] proposal <- im_info_input-data_1_split_1
I0405 11:28:37.257923  7827 net.cpp:411] proposal -> rpn_rois
I0405 11:28:37.258736  7827 net.cpp:150] Setting up proposal
I0405 11:28:37.258752  7827 net.cpp:157] Top shape: 1 5 (5)
I0405 11:28:37.258761  7827 net.cpp:165] Memory required for data: 280394224
I0405 11:28:37.258769  7827 layer_factory.hpp:77] Creating layer roi-data
I0405 11:28:37.260305  7827 net.cpp:106] Creating Layer roi-data
I0405 11:28:37.260320  7827 net.cpp:454] roi-data <- rpn_rois
I0405 11:28:37.260330  7827 net.cpp:454] roi-data <- gt_boxes_input-data_2_split_1
I0405 11:28:37.260342  7827 net.cpp:411] roi-data -> rois
I0405 11:28:37.260356  7827 net.cpp:411] roi-data -> labels
I0405 11:28:37.260368  7827 net.cpp:411] roi-data -> bbox_targets
I0405 11:28:37.260385  7827 net.cpp:411] roi-data -> bbox_inside_weights
I0405 11:28:37.260397  7827 net.cpp:411] roi-data -> bbox_outside_weights
I0405 11:28:37.260807  7827 net.cpp:150] Setting up roi-data
I0405 11:28:37.260821  7827 net.cpp:157] Top shape: 1 5 (5)
I0405 11:28:37.260831  7827 net.cpp:157] Top shape: 1 1 (1)
I0405 11:28:37.260838  7827 net.cpp:157] Top shape: 1 8 (8)
I0405 11:28:37.260844  7827 net.cpp:157] Top shape: 1 8 (8)
I0405 11:28:37.260851  7827 net.cpp:157] Top shape: 1 8 (8)
I0405 11:28:37.260859  7827 net.cpp:165] Memory required for data: 280394344
I0405 11:28:37.260865  7827 layer_factory.hpp:77] Creating layer roi_pool_conv5
I0405 11:28:37.260877  7827 net.cpp:106] Creating Layer roi_pool_conv5
I0405 11:28:37.260885  7827 net.cpp:454] roi_pool_conv5 <- conv5_relu5_0_split_1
I0405 11:28:37.260895  7827 net.cpp:454] roi_pool_conv5 <- rois
I0405 11:28:37.260905  7827 net.cpp:411] roi_pool_conv5 -> roi_pool_conv5
I0405 11:28:37.260917  7827 roi_pooling_layer.cpp:30] Spatial scale: 0.0625
I0405 11:28:37.260970  7827 net.cpp:150] Setting up roi_pool_conv5
I0405 11:28:37.260979  7827 net.cpp:157] Top shape: 1 256 6 6 (9216)
I0405 11:28:37.260988  7827 net.cpp:165] Memory required for data: 280431208
I0405 11:28:37.260995  7827 layer_factory.hpp:77] Creating layer fc6
I0405 11:28:37.261006  7827 net.cpp:106] Creating Layer fc6
I0405 11:28:37.261014  7827 net.cpp:454] fc6 <- roi_pool_conv5
I0405 11:28:37.261025  7827 net.cpp:411] fc6 -> fc6
I0405 11:28:37.343741  7827 net.cpp:150] Setting up fc6
I0405 11:28:37.343770  7827 net.cpp:157] Top shape: 1 4096 (4096)
I0405 11:28:37.343781  7827 net.cpp:165] Memory required for data: 280447592
I0405 11:28:37.343801  7827 layer_factory.hpp:77] Creating layer relu6
I0405 11:28:37.343814  7827 net.cpp:106] Creating Layer relu6
I0405 11:28:37.343823  7827 net.cpp:454] relu6 <- fc6
I0405 11:28:37.343834  7827 net.cpp:397] relu6 -> fc6 (in-place)
I0405 11:28:37.343848  7827 net.cpp:150] Setting up relu6
I0405 11:28:37.343854  7827 net.cpp:157] Top shape: 1 4096 (4096)
I0405 11:28:37.343863  7827 net.cpp:165] Memory required for data: 280463976
I0405 11:28:37.343868  7827 layer_factory.hpp:77] Creating layer drop6
I0405 11:28:37.343892  7827 net.cpp:106] Creating Layer drop6
I0405 11:28:37.343901  7827 net.cpp:454] drop6 <- fc6
I0405 11:28:37.343910  7827 net.cpp:397] drop6 -> fc6 (in-place)
I0405 11:28:37.343947  7827 net.cpp:150] Setting up drop6
I0405 11:28:37.343956  7827 net.cpp:157] Top shape: 1 4096 (4096)
I0405 11:28:37.343963  7827 net.cpp:165] Memory required for data: 280480360
I0405 11:28:37.343969  7827 layer_factory.hpp:77] Creating layer fc7
I0405 11:28:37.343981  7827 net.cpp:106] Creating Layer fc7
I0405 11:28:37.343991  7827 net.cpp:454] fc7 <- fc6
I0405 11:28:37.344002  7827 net.cpp:411] fc7 -> fc7
I0405 11:28:37.382050  7827 net.cpp:150] Setting up fc7
I0405 11:28:37.382077  7827 net.cpp:157] Top shape: 1 4096 (4096)
I0405 11:28:37.382088  7827 net.cpp:165] Memory required for data: 280496744
I0405 11:28:37.382103  7827 layer_factory.hpp:77] Creating layer relu7
I0405 11:28:37.382117  7827 net.cpp:106] Creating Layer relu7
I0405 11:28:37.382127  7827 net.cpp:454] relu7 <- fc7
I0405 11:28:37.382138  7827 net.cpp:397] relu7 -> fc7 (in-place)
I0405 11:28:37.382153  7827 net.cpp:150] Setting up relu7
I0405 11:28:37.382160  7827 net.cpp:157] Top shape: 1 4096 (4096)
I0405 11:28:37.382169  7827 net.cpp:165] Memory required for data: 280513128
I0405 11:28:37.382174  7827 layer_factory.hpp:77] Creating layer drop7
I0405 11:28:37.382185  7827 net.cpp:106] Creating Layer drop7
I0405 11:28:37.382191  7827 net.cpp:454] drop7 <- fc7
I0405 11:28:37.382200  7827 net.cpp:397] drop7 -> fc7 (in-place)
I0405 11:28:37.382238  7827 net.cpp:150] Setting up drop7
I0405 11:28:37.382247  7827 net.cpp:157] Top shape: 1 4096 (4096)
I0405 11:28:37.382254  7827 net.cpp:165] Memory required for data: 280529512
I0405 11:28:37.382261  7827 layer_factory.hpp:77] Creating layer fc7_drop7_0_split
I0405 11:28:37.382270  7827 net.cpp:106] Creating Layer fc7_drop7_0_split
I0405 11:28:37.382277  7827 net.cpp:454] fc7_drop7_0_split <- fc7
I0405 11:28:37.382287  7827 net.cpp:411] fc7_drop7_0_split -> fc7_drop7_0_split_0
I0405 11:28:37.382299  7827 net.cpp:411] fc7_drop7_0_split -> fc7_drop7_0_split_1
I0405 11:28:37.382351  7827 net.cpp:150] Setting up fc7_drop7_0_split
I0405 11:28:37.382361  7827 net.cpp:157] Top shape: 1 4096 (4096)
I0405 11:28:37.382369  7827 net.cpp:157] Top shape: 1 4096 (4096)
I0405 11:28:37.382377  7827 net.cpp:165] Memory required for data: 280562280
I0405 11:28:37.382383  7827 layer_factory.hpp:77] Creating layer cls_score
I0405 11:28:37.382396  7827 net.cpp:106] Creating Layer cls_score
I0405 11:28:37.382405  7827 net.cpp:454] cls_score <- fc7_drop7_0_split_0
I0405 11:28:37.382416  7827 net.cpp:411] cls_score -> cls_score
I0405 11:28:37.382602  7827 net.cpp:150] Setting up cls_score
I0405 11:28:37.382612  7827 net.cpp:157] Top shape: 1 2 (2)
I0405 11:28:37.382619  7827 net.cpp:165] Memory required for data: 280562288
I0405 11:28:37.382630  7827 layer_factory.hpp:77] Creating layer bbox_pred
I0405 11:28:37.382642  7827 net.cpp:106] Creating Layer bbox_pred
I0405 11:28:37.382648  7827 net.cpp:454] bbox_pred <- fc7_drop7_0_split_1
I0405 11:28:37.382660  7827 net.cpp:411] bbox_pred -> bbox_pred
I0405 11:28:37.383103  7827 net.cpp:150] Setting up bbox_pred
I0405 11:28:37.383114  7827 net.cpp:157] Top shape: 1 8 (8)
I0405 11:28:37.383121  7827 net.cpp:165] Memory required for data: 280562320
I0405 11:28:37.383131  7827 layer_factory.hpp:77] Creating layer loss_cls
I0405 11:28:37.383144  7827 net.cpp:106] Creating Layer loss_cls
I0405 11:28:37.383152  7827 net.cpp:454] loss_cls <- cls_score
I0405 11:28:37.383160  7827 net.cpp:454] loss_cls <- labels
I0405 11:28:37.383170  7827 net.cpp:411] loss_cls -> cls_loss
…
